services/gnn/gnn_model.pt (torch, 206557 bytes, 18 tensors)

conv1.convs.<user___solved___problem>.lin_l.weight f4 [64, 64]
0	0x3cafe455	0.021471182
1	0x3d532172	0.051545568
2	0x3ba95fb9	0.0051688817
3	0x3d09f71d	0.03368293
4	0xbdd17e81	-0.10229207
5	0x3e373ab7	0.17893492
6	0x3e132f91	0.14373614
7	0xbe147192	-0.14496449
8	0xbc8c6197	-0.017136378
9	0x3d9e49df	0.077289335
10	0xbdac11e0	-0.08401847
11	0xbd215034	-0.03938313
12	0xbd3d0389	-0.04614595
13	0x3d2a43b1	0.04156846
14	0xbdb75834	-0.0895237
15	0xbd08a468	-0.033359915
16	0x3d9ac06c	0.07556233
17	0x3c261b52	0.01013835
18	0x3d9bf6a1	0.076154
19	0x3d840d7c	0.064478844
20	0x3d4ace1c	0.049512967
21	0x3d33156c	0.0437216
22	0xbe0f6b55	-0.14005788
23	0xbbe56a4c	-0.007001197
24	0xbe314031	-0.17309643
25	0xbd9f6e44	-0.077847034
26	0x3d3c5de2	0.04598797
27	0x3c41f5ba	0.011838371
28	0xbb66ef78	-0.003523795
29	0x3d78856b	0.060674112
30	0x3ca9e637	0.020739658
31	0xbdb5669c	-0.08857462
32	0xbd812a5d	-0.06306908
33	0x3e3073b6	0.1723164
34	0x3df15522	0.11783816
35	0xbde53459	-0.11191625
36	0x3dbdcc61	0.09267498
37	0xbdb4b1ff	-0.088230126
38	0xbdb9eb8b	-0.090781294
39	0xbda2fc63	-0.07958295
40	0xbda7d92b	-0.081957184
41	0xbe2fb937	-0.17160498
42	0x3e0c4edd	0.13701959
43	0xbd0f300d	-0.034957934
44	0x3d48df0a	0.04904083
45	0x3c9048a8	0.01761277
46	0x3d48388e	0.04888206
47	0x3def336f	0.11679732
48	0x3e17d15c	0.14825958
49	0xbe23a955	-0.15982564
50	0xbcb7ee44	-0.022452481
51	0xbc969f0b	-0.018386384
52	0x3df30b4c	0.11867389
53	0xbe08a0b5	-0.13342555
54	0xbd432b4c	-0.047648713
55	0x3d4125d2	0.04715521
56	0xbcf8ea48	-0.030385152
57	0x3dc526ab	0.09626516
58	0x3c94636b	0.018113812
59	0xba972c41	-0.0011533574
60	0xbc480e98	-0.012210511
61	0xbd9edf4a	-0.07757433
62	0xbdb9a8f3	-0.09065428
63	0x3d36f73e	0.044669382
64	0x3d14e082	0.03634692
65	0x3e0e11c1	0.1387396
66	0xbdee5b0e	-0.11638461
67	0x3e0f68db	0.14004843
68	0xbc995ef4	-0.018722035
69	0x3d1c4ca6	0.038159035
70	0x3c3881b7	0.011261395
71	0x3d1363e5	0.03598394
72	0xbd069485	-0.032856483
73	0x3d65ea45	0.05613162
74	0xbdb54645	-0.088512935
75	0x3d557dd7	0.052121963
76	0x3e54d10e	0.20782873
77	0x3e888086	0.26660556
78	0xbd803fbc	-0.06262156
79	0x3db272dd	0.08713315
80	0x3e6ccea0	0.23125696
81	0x3cff5bc0	0.03117168
82	0x3d59fe24	0.053220883
83	0x3e1453d9	0.1448511
84	0xbe5a3568	-0.21309435
85	0xbc39feee	-0.011352284
86	0x3db92e12	0.0904199
87	0xbd7bb612	-0.061452933
88	0x3e0f19aa	0.13974634
89	0xbc83eafb	-0.016103258
90	0x3cfe2eeb	0.031028232
91	0xbe3214d5	-0.1739076
92	0xbddf1e24	-0.10894421
93	0xbc9ad28a	-0.018899221
94	0xbbc8ac26	-0.0061240373
95	0xbce74de7	-0.028235389
96	0x3d2b00ff	0.041748997
97	0x3d89b945	0.067247905
98	0x3e29c3b2	0.16578558
99	0xbda6f22e	-0.08151661
100	0x3e18a50a	0.14906707
101	0x3a893192	0.0010467044
102	0x3d5f8287	0.05456784
103	0x3d269153	0.040665936
104	0xbe735f07	-0.23766719
105	0xbd65889c	-0.056038484
106	0x3cf54abd	0.029942865
107	0x3d4f1ff9	0.0505676
108	0xbab29fac	-0.0013627908
109	0x3ca915e1	0.020640315
110	0xbdcb95d3	-0.09940686
111	0x3cb6b6a6	0.02230389
112	0x3d9e7c35	0.07738534
113	0xbd54bd19	-0.05193815
114	0x3d668dc6	0.05628755
115	0xbd059fe6	-0.032623194
116	0x3dc075fe	0.09397505
117	0x3db2e262	0.08734585
118	0xbd5c3a5e	-0.0537666
119	0xbc1ea09a	-0.009681845
120	0xbe0bcc27	-0.13652097
121	0x3ce6a51b	0.0281549
122	0xbe3071ac	-0.17230862
123	0xbe8dce35	-0.27696386
124	0x3d5c14c3	0.053730737
125	0x3ecc1f7e	0.39867777
126	0xbd51ed1a	-0.05125151
127	0x3d3cb0a6	0.046066903
128	0xbdd066f4	-0.10175887
129	0xbe3d06c0	-0.18459606
130	0xbc9a6848	-0.018848553
131	0x3d2b50e3	0.041825186
132	0xbe07b286	-0.13251695
133	0xbc647ae6	-0.013945317
134	0xbc4776a6	-0.012174284
135	0x3ea81b3a	0.32833272
136	0x3dcfa416	0.10138719
137	0xbda18625	-0.07886914
138	0x3c4ec45c	0.012620058
139	0x3d4490d4	0.04798968
140	0xbd4334c7	-0.047657754
141	0xbd83cbaa	-0.0643533
142	0xbde1d9c5	-0.11027864
143	0x3d2cd370	0.04219383
144	0x3e08a545	0.13344295
145	0xbd2a27af	-0.04154175
146	0x3e0f4384	0.13990599
147	0x3dab140e	0.083534345
148	0x3d31ca8e	0.04340606
149	0x3d83c6fb	0.06434437
150	0xbd60682b	-0.054786842
151	0x3b9dcdd6	0.0048157973
152	0xbe3bc256	-0.18335852
153	0xbd3581f2	-0.04431338
154	0x3e380770	0.17971587
155	0xbd1bc9ec	-0.038034365
156	0xbddccca4	-0.107812196
157	0x3cb05a7c	0.021527521
158	0xbd4d9b0b	-0.05019669
159	0x3d2d7061	0.0423435
160	0xbd9e75ed	-0.07737336
161	0xbd5da283	-0.05411006
162	0x3da743dc	0.0816724
163	0x3dbbc2b2	0.091679946
164	0xbd64f598	-0.05589828
165	0x3d63d17e	0.05561971
166	0xbe605acb	-0.21909635
167	0xbdb664b8	-0.08905929
168	0xbd9d3843	-0.07676747
169	0xbd7d2b77	-0.06180903
170	0x3d1c7997	0.038201895
171	0x3e0d1f18	0.13781393
172	0xbdabf149	-0.08395631
173	0x3e0607cb	0.1308891
174	0xbd54fe0f	-0.0520001
175	0x3dbe283a	0.09285016
176	0x3d58e120	0.05294907
177	0xbde5e447	-0.11225181
178	0x3e1990e2	0.14996675
179	0x3d2e0186	0.04248192
180	0x3c8fcd8a	0.017554063
181	0xbdc4a742	-0.096022144
182	0xbe0d77a3	-0.13815169
183	0xbe253773	-0.16134433
184	0xbce5b8a3	-0.028042143
185	0x3da2efe5	0.079559125
186	0xbd468cb4	-0.04847403
187	0xbb7d36ca	-0.0038637393
188	0x3c65515e	0.01399645
189	0x3eaa7a3f	0.3329639
190	0xbd3dbd70	-0.04632324
191	0xbd6ecad8	-0.058298916
192	0xbdb05739	-0.086103864
193	0xbe48909f	-0.19586419
194	0xbcd1e562	-0.025622074
195	0x3d8acf58	0.06777829
196	0x3e12cf28	0.14336836
197	0xbd3d738b	-0.04625277
198	0xbcaabcff	-0.020842073
199	0x3e82ac61	0.2552214
200	0x3ded03d8	0.11572999
201	0x3a464bf2	0.00075644173
202	0x3d664e1e	0.056226842
203	0x3c56c8a7	0.013109363
204	0x3c7cf8bf	0.015440165
205	0x3e457cb2	0.19285849
206	0xbbb6cfbb	-0.0055789626
207	0x3e4095d6	0.18807158
208	0xbd768648	-0.060186654
209	0xbe0c8e41	-0.1372614
210	0x3e34dedd	0.1766314
211	0x3d7de39b	0.06198464
212	0xbe5896a4	-0.21151215
213	0xbcc97a0c	-0.02459433
214	0x3e0289ee	0.12747929
215	0x3e678986	0.22611055
216	0xbd7986b2	-0.06091947
217	0x3d47384b	0.04863767
218	0x3e229b2d	0.15879507
219	0xbe36117c	-0.17780107
220	0xbe046be9	-0.1293179
221	0xbd7a17e3	-0.061057936
222	0x3d0dc742	0.034613855
223	0xbcfc19b9	-0.030773984
224	0xba53c1b0	-0.0008077873
225	0x3de79fde	0.11309789
226	0x3d3aca45	0.045603056
227	0xbd86fdab	-0.06591352
228	0xbd94d5f9	-0.072673745
229	0x3d327abe	0.043574087
230	0xbe0dc66a	-0.1384522
231	0xbe86713d	-0.2625827
232	0x3d96d874	0.07365504
233	0xbd86be15	-0.06579224
234	0xbd5fcf51	-0.05464107
235	0x3ce571d3	0.028008377
236	0x3db33b1a	0.08751507
237	0x3d4d4fb0	0.050124824
238	0xbb102482	-0.0021994417
239	0xbe226859	-0.15860118
240	0xbad8c896	-0.0016539271
241	0x3c32fab6	0.010924032
242	0x3e0b0ecc	0.13579863
243	0xbe331ccf	-0.17491458
244	0x3da082e6	0.07837467
245	0xbe764c32	-0.24052504
246	0x3b00b3f6	0.0019638515
247	0xbde7d9df	-0.113208525
248	0xbe0397c7	-0.12850867
249	0xbd968bcc	-0.07350883
250	0x3ddd9801	0.10820008
251	0x3dd49b52	0.103811875
252	0xbb980993	-0.004639813
253	0xbe31deaf	-0.17370103
254	0xbe4274f4	-0.18989927
255	0x3e39cc77	0.18144403

conv1.convs.<user___solved___problem>.lin_l.bias f4 [64]
0	0xba40f736	-0.0007361056
1	0xbe1397ac	-0.14413327
2	0x3d49b799	0.049247358
3	0xbdd654a7	-0.10465365
4	0xbe326524	-0.17421395
5	0xbdd25632	-0.10270347
6	0xbe168f56	-0.14703116
7	0x3cf86e7e	0.030326124
8	0xbd68ee62	-0.056867965
9	0xbe2ae5c4	-0.16689211
10	0xbe54e078	-0.20788753
11	0x3a28b8a0	0.00064362027
12	0xbd443687	-0.047903564
13	0xbe5b9bc6	-0.21446142
14	0xbd9e2d72	-0.07723512
15	0xbd8847c5	-0.06654314
16	0xbdc8f4d4	-0.09812322
17	0x3ce4efc9	0.02794637
18	0xbd525068	-0.051346213
19	0xbd9b6e83	-0.07589438
20	0xbe36ae22	-0.17839864
21	0xbe05e443	-0.13075356
22	0x3c84f2d7	0.016229076
23	0xbe36feae	-0.1787059
24	0xbe2f40b1	-0.17114522
25	0xbe1d2681	-0.1534672
26	0x3cbfed26	0.02342851
27	0xbdb895dd	-0.09012959
28	0xbe260a30	-0.16214824
29	0xbdd5ffcb	-0.10449179
30	0xbdd7fcc7	-0.1054626
31	0xbe38fa78	-0.18064296
32	0xbdee20af	-0.11627328
33	0xbe143ed8	-0.14477098
34	0x3d558edc	0.052138194
35	0x3d0fab3d	0.035075415
36	0x3d3e491d	0.046456445
37	0xbe25d8a9	-0.1619593
38	0xbddcdec1	-0.107846744
39	0x3b83d456	0.004023115
40	0x3c8441b2	0.016144607
41	0xbe185077	-0.14874445
42	0x3d31aabc	0.043375716
43	0xbe208ed3	-0.15679483
44	0xbe25d2f5	-0.16193755
45	0xbd049309	-0.032366786
46	0xbe124fcc	-0.14288253
47	0xbe247190	-0.16058946
48	0xbe25619f	-0.1615052
49	0xbcad854a	-0.021181721
50	0xbe222dab	-0.15837733
51	0xbded858c	-0.11597738
52	0xbdc19c61	-0.09453655
53	0xbca23e82	-0.019805197
54	0xbda96ee9	-0.082731076
55	0xbd79f615	-0.061025698
56	0xbc6ac2bb	-0.014328654
57	0xbe3f2e5e	-0.18670031
58	0xbcabb7bf	-0.02096164
59	0xbd318e92	-0.043348856
60	0xbe186ba9	-0.14884819
61	0xbdd9b55f	-0.10630297
62	0xbd66954f	-0.056294736
63	0x3c88ce20	0.01669985

conv1.convs.<user___solved___problem>.lin_r.weight f4 [64, 64]
0	0x3dd8e3fb	0.10590359
1	0xbd0e4353	-0.034732174
2	0x3dc45f0c	0.09588441
3	0xbde10c5e	-0.10988687
4	0xbd4a3af3	-0.049372625
5	0xbe816bd5	-0.25277582
6	0x3c2b460f	0.010453715
7	0x3dc41f2d	0.09576259
8	0x3d417917	0.04723462
9	0x3e03ee62	0.12883905
10	0x3cb94650	0.022616535
11	0xbd64c8fd	-0.05585574
12	0xbdd801d2	-0.10547222
13	0x3d5ffd39	0.05468485
14	0x3e0eaf78	0.13934124
15	0xbd40a172	-0.047028966
16	0xbd8cebcb	-0.068809114
17	0x3e15e1f7	0.1463698
18	0x3ce90c29	0.028448181
19	0x3c8d369e	0.017237958
20	0x3b9ec369	0.004845072
21	0xbbfec077	-0.0077744084
22	0x3e30d363	0.17268138
23	0xbd9eb347	-0.07749038
24	0x3dd3d628	0.103435814
25	0xbca96548	-0.020678177
26	0xbd969b00	-0.07353783
27	0x3cb5cebe	0.022193309
28	0x3d02b00c	0.031906173
29	0x3c50af38	0.012737088
30	0xbe0b8a1f	-0.13626908
31	0xbe08d17c	-0.13361162
32	0x3e1949bd	0.14969535
33	0x3dc5345b	0.09629127
34	0x3d21c439	0.039493773
35	0xbe0161d1	-0.1263497
36	0xbcef6318	-0.029222056
37	0xbd2d7481	-0.042347435
38	0xbcf9dcac	-0.030500732
39	0xbd9e2dfb	-0.07723614
40	0x3d3fcd88	0.04682687
41	0x3d683d44	0.056699052
42	0x3cb4c272	0.022065375
43	0xbce96653	-0.028491175
44	0x3da2df93	0.079528
45	0xbc1f425e	-0.009720413
46	0xbe093208	-0.13397992
47	0xbbd286d2	-0.0064247632
48	0xbc2edec1	-0.010673226
49	0x3dfdeee4	0.123990804
50	0x3d883155	0.06650034
51	0xbe36155f	-0.1778159
52	0x3c8fff05	0.017577657
53	0x3dd4f89a	0.103989795
54	0x3df7295f	0.12068438
55	0x3b65da62	0.0035072793
56	0x3c2ca5a3	0.010537538
57	0xbe027231	-0.12738873
58	0xbddd9650	-0.108196855
59	0x3dd47d1f	0.103754275
60	0x3d6b46f7	0.057440724
61	0x3d819a27	0.0632823
62	0x3dc7d64c	0.09757671
63	0x3c9a2dc5	0.018820653
64	0x3bca4460	0.0061727017
65	0xbdafcdab	-0.0858415
66	0xbd8a08dd	-0.06739972
67	0x3d9fc46f	0.078011386
68	0x3e0b8c63	0.13627772
69	0xbce52b03	-0.027974611
70	0xbd86c0e2	-0.06579758
71	0x3d85fa51	0.06541885
72	0x3e0e3e2c	0.13890904
73	0xbe02a37c	-0.12757677
74	0x3d66bc06	0.056331657
75	0x3e2eb2b5	0.17060359
76	0x3c585cc0	0.013205707
77	0x3e15709d	0.1459374
78	0x3cc2e68b	0.023791572
79	0x3d7d7b70	0.061885297
80	0x3e40ce41	0.1882868
81	0x3c99d84e	0.0187799
82	0xbe2c6a5e	-0.16837451
83	0xbe155188	-0.14581883
84	0x3e851550	0.25992823
85	0xbc86969b	-0.016429236
86	0xbdbad1d1	-0.091220506
87	0xbd2686d9	-0.040655944
88	0x3e0d01f2	0.13770273
89	0xbbeb264d	-0.0071761967
90	0x3d8dd6af	0.06925713
91	0xbd12771e	-0.03575813
92	0x3dafa35e	0.08576082
93	0x3d04a22f	0.032381233
94	0xbe0d5720	-0.13802767
95	0x3d10e9f4	0.035379365
96	0xbe01c245	-0.12671764
97	0x3d61c3d0	0.055118382
98	0x3dbc1473	0.09183588
99	0xbe441796	-0.19149622
100	0x3cb929b7	0.022602899
101	0xbe3b8199	-0.18311156
102	0x3df423d4	0.11920896
103	0x3db6f522	0.08933474
104	0x3e001db0	0.12511325
105	0xbe9a70b0	-0.301641
106	0x3e01b703	0.1266747
107	0x3db61c3f	0.08892106
108	0x3e520c0c	0.20512408
109	0xbd778548	-0.06042984
110	0xbc811233	-0.015755748
111	0xbb69d555	-0.0035680134
112	0xbc662e46	-0.014049118
113	0xbd664fa3	-0.05622829
114	0x3d7e4904	0.062081352
115	0xbe2c04d9	-0.16798724
116	0x3d82d7c3	0.063888095
117	0x3e27bb79	0.16380109
118	0xbdd48d6b	-0.10378536
119	0xbe56fbb3	-0.20994453
120	0x3e3d0eda	0.18462697
121	0x3e624a1f	0.22098587
122	0x3dc53488	0.0962916
123	0x3c90e2b4	0.017686225
124	0xbd4bd6c4	-0.049765363
125	0xbd68997f	-0.05678701
126	0xbe04daa1	-0.12974025
127	0x3d50154a	0.050801553
128	0xbc8591bf	-0.016304849
129	0x3dc831e1	0.09775139
130	0x3e0af1f8	0.13568866
131	0x3c5c5f72	0.01345049
132	0xbc8ef9cb	-0.017453095
133	0xbd370640	-0.044683695
134	0xbd00f8e2	-0.031487353
135	0xbd2ae54a	-0.041722573
136	0xbd127642	-0.03575731
137	0x3eb6d7ec	0.3571161
138	0xbcb22cb1	-0.021749826
139	0x3db340f0	0.0875262
140	0x3cb2acef	0.021810977
141	0x3d833fe4	0.064086705
142	0x3e12cff8	0.14337146
143	0xbe2535f9	-0.1613387
144	0xbd31c725	-0.04340281
145	0xbae56b4d	-0.0017503292
146	0x3dc97cac	0.098382324
147	0x3e426766	0.18984756
148	0x3e4471cb	0.19184034
149	0xbd2ff14f	-0.04295474
150	0x3da23c01	0.07921601
151	0xbc908c52	-0.017645035
152	0xbd437cb0	-0.047726333
153	0xbcbfe4f8	-0.02342461
154	0x3d567357	0.05235609
155	0x3ce28a2f	0.027653782
156	0xbdbc648f	-0.091988675
157	0xbe8c297b	-0.27375397
158	0x3d03c9ac	0.03217475
159	0xbcda0105	-0.026611814
160	0x3dad2902	0.08455087
161	0xbc2efedd	-0.010680881
162	0xbda1b528	-0.07895881
163	0xbe35e7bf	-0.17764185
164	0x3c6b20d0	0.014351085
165	0xbda7370f	-0.081647985
166	0x3d0f1704	0.03493406
167	0xbe1701d5	-0.14746793
168	0xbe103a21	-0.14084674
169	0x3d5d414c	0.05401735
170	0x3c9f89db	0.019474914
171	0x3dee45a5	0.116343774
172	0xbda42af7	-0.080160074
173	0x3d5dc024	0.054138318
174	0x3ddb958f	0.107218854
175	0x3dc8bc29	0.09801514
176	0x3e41050d	0.18849583
177	0x3d829209	0.0637551
178	0xbe5eb7f4	-0.2174986
179	0xbe7473da	-0.23872319
180	0x3dcfb75a	0.101423934
181	0x3dc054bb	0.09391161
182	0xbd2b7cee	-0.04186719
183	0xbe45ec66	-0.1932846
184	0x3e771c50	0.24131894
185	0x3df2956b	0.118449055
186	0xbe059a21	-0.13047077
187	0xbc2ea101	-0.0106585035
188	0x3c91749a	0.017755795
189	0x3cd9e030	0.026596159
190	0x3e2de372	0.16981295
191	0x3b19a86e	0.002344634
192	0xbc9332d2	-0.017968569
193	0x3e3bdfe2	0.18347123
194	0x3db3fcab	0.08788427
195	0x3c5106bd	0.012757954
196	0x3d83d8e0	0.0643785
197	0xbd93f14e	-0.072237596
198	0x3ded1a8f	0.11577331
199	0x3e438f17	0.19097553
200	0x3c22b6c2	0.009931268
201	0x3c586060	0.013206571
202	0x3e110e46	0.14165601
203	0x3d6d64bd	0.0579574
204	0xbde77bce	-0.11302911
205	0x3dfa2726	0.12214498
206	0x3d1e8750	0.038703263
207	0x3d16fbe2	0.036861308
208	0xbe28335b	-0.1642584
209	0x3d2b92a6	0.0418879
210	0x3e2ec3ff	0.17066954
211	0x3e2d2533	0.16908722
212	0xbd6a0981	-0.05713797
213	0xbe18b5a3	-0.14913039
214	0x3d5fea97	0.05466708
215	0xbe5709fe	-0.20999905
216	0x3db66c3d	0.089073636
217	0xbe462227	-0.19348966
218	0x3d2aa927	0.041665222
219	0xbe10c856	-0.14138922
220	0x3d0f407a	0.0349736
221	0x3cdddd17	0.027082963
222	0xbde7c3d2	-0.11316647
223	0xbdbe6fe9	-0.09298689
224	0xbcafb7a5	-0.021449873
225	0xbc78b292	-0.015179293
226	0x3d7e51b6	0.062089644
227	0xbb9a77ab	-0.0047139726
228	0x3cd751eb	0.026284179
229	0x3e1aba32	0.1511009
230	0x3e150a42	0.14554694
231	0x3e09e874	0.1346758
232	0xbb354308	-0.0027658362
233	0xbe51c190	-0.20483994
234	0xbd01f442	-0.031727083
235	0xbc6c63e2	-0.014428111
236	0x3c1c94ff	0.009557008
237	0x3e808ee3	0.25109014
238	0xbdb54843	-0.088516735
239	0xbd47ea9e	-0.048807733
240	0x3dfb98e1	0.12285019
241	0xbbc9a515	-0.0061537125
242	0xbd5ec796	-0.05438956
243	0xbe574552	-0.21022537
244	0x3dc44eb4	0.09585324
245	0xbd5cadcd	-0.053876687
246	0xbcd9072f	-0.026492683
247	0xbe1dbeb4	-0.15404779
248	0x3e59e058	0.21276987
249	0xbdadc73c	-0.084852666
250	0xbb65471a	-0.0034985007
251	0xbd8a812e	-0.0676292
252	0xbe36b999	-0.17844237
253	0xbe6a1932	-0.22861174
254	0xbc5c0e53	-0.01343115
255	0xbe7a89f5	-0.24466689

conv1.convs.<problem___belongs_to___topic>.lin_l.weight f4 [64, 64]
0	0x3d104138	0.035218447
1	0x3ddc0008	0.107421935
2	0xbb054c00	-0.002033949
3	0xbda0a540	-0.07844019
4	0x3d02546c	0.031818792
5	0xbcd39e28	-0.02583225
6	0x3d45e028	0.048309475
7	0xbd1cca48	-0.038278848
8	0xbbe61a20	-0.0070221573
9	0xbd6f7d04	-0.058468834
10	0x3dbcf782	0.09226896
11	0xbd92a8c0	-0.07161093
12	0x3d9b2664	0.07575682
13	0x3ccd3b00	0.025052547
14	0x3dc64cda	0.09682627
15	0x3b48b680	0.0030626357
16	0x3dac8b1a	0.08424969
17	0x3dd99a5c	0.10625145
18	0x3dcc96fa	0.09989734
19	0x3dbde132	0.09271468
20	0xbd38c910	-0.045113623
21	0xbdfe9c06	-0.12432103
22	0xbdf8791c	-0.12132475
23	0xbdd7fdf6	-0.10546486
24	0xbc0ac9b0	-0.008470938
25	0x3d805d54	0.06267801
26	0x3c014e90	0.007892266
27	0xbd5c1388	-0.053729564
28	0xbd8f159a	-0.06986542
29	0xbddff55a	-0.10935469
30	0xbd91a48e	-0.071114644
31	0x3cc774a0	0.024347603
32	0xbc8c0cb0	-0.017095894
33	0x3df235c6	0.11826663
34	0xbda46bf8	-0.08028406
35	0x3d4c4da8	0.049878746
36	0xbd2ed1d4	-0.042680576
37	0x3d394efc	0.04524134
38	0x3d6fc394	0.058536127
39	0x3d2aa5e0	0.041662097
40	0x3dbc0c76	0.09182064
41	0x3dd8a3d0	0.1057812
42	0xbd6bd8c8	-0.057579786
43	0x3d2926f8	0.04129693
44	0xbdc464b4	-0.0958952
45	0x3df8d312	0.121496335
46	0x3cb2bd10	0.021818668
47	0xbd19732c	-0.037463352
48	0xbc3669c0	-0.011133611
49	0xbdaa9d44	-0.08330777
50	0xbd8a50c6	-0.067536876
51	0xbcb3a198	-0.02192764
52	0xbdcf5030	-0.101227164
53	0x3d105bcc	0.035243794
54	0xbd9c5468	-0.07633287
55	0x3d3609d4	0.044442967
56	0xbd354de0	-0.04426372
57	0xbde49a10	-0.111621976
58	0xbdf43c76	-0.119255945
59	0xbd332548	-0.043736726
60	0x3deeb6d4	0.116559654
61	0xbdf578bc	-0.11985919
62	0x3b2a00c0	0.0025940388
63	0x3d3dd1bc	0.046342596
64	0xbd8d8ad2	-0.069112435
65	0xbca71b48	-0.02039875
66	0xbd348180	-0.044068813
67	0xbcd4c218	-0.025971457
68	0xbd9cd854	-0.07658449
69	0x3d666788	0.05625108
70	0xbda2cc38	-0.07949108
71	0xbde52ace	-0.11189805
72	0xbc0d23a0	-0.008614451
73	0x3df655d0	0.12028086
74	0xbb3d6100	-0.0028896928
75	0xbdbae58c	-0.09125814
76	0x3ddd6080	0.108094215
77	0x3dbd2d94	0.09237209
78	0x3da9e45e	0.08295511
79	0xbc2ac210	-0.010422245
80	0x3c5309c0	0.012880743
81	0xbdf32912	-0.11873068
82	0x3d654aa8	0.0559794
83	0xbda14d52	-0.07876076
84	0x3ca14310	0.019685298
85	0x3d98f68e	0.074689016
86	0xbdc15082	-0.09439184
87	0x3c4aef10	0.0123860985
88	0xbd67703c	-0.05650352
89	0xbdb81ea2	-0.08990218
90	0x3db17804	0.08665469
91	0x3d72df0c	0.059294745
92	0x3d4c8b04	0.049937263
93	0xbdfa2794	-0.1221458
94	0x3da48494	0.080331
95	0x3d5e7fe8	0.0543212
96	0x3d97fe74	0.0742158
97	0xbda9726c	-0.08273777
98	0xbdaacba8	-0.083396256
99	0x3c63cef0	0.013904318
100	0xbd4c1ed0	-0.049834073
101	0x3daf26c6	0.08552317
102	0xbdf47b38	-0.119375646
103	0x3d82996c	0.06376919
104	0xbde1e41a	-0.11029835
105	0xbdd00c80	-0.10158634
106	0xbb883780	-0.0041570067
107	0xbdbd083c	-0.09230086
108	0x3c88bb88	0.016690984
109	0xbd33578c	-0.043784663
110	0x3d7bf344	0.061511293
111	0x3d85ef4e	0.06539784
112	0x3d5ff114	0.05467327
113	0x3c88a1b0	0.016678661
114	0x3d0ab164	0.03386058
115	0x3df75b28	0.120779335
116	0x3c88e9a8	0.016712978
117	0x3cb553f8	0.022134766
118	0x3db21a6a	0.08696444
119	0xbdfaae3c	-0.12240264
120	0x3c026cf0	0.007960543
121	0xbd9199b8	-0.07109398
122	0x3c9dac40	0.019247174
123	0x3d1e641c	0.03866969
124	0xbd98ef7a	-0.074675515
125	0xbd768290	-0.060183108
126	0x39fbee00	0.00048051775
127	0xba967f80	-0.001148209
128	0x3ce0cd48	0.027441636
129	0xbdb0f20c	-0.08639917
130	0x3c98aab8	0.018636093
131	0x3cafdf60	0.021468818
132	0xbdf6335a	-0.12021513
133	0xbdc38800	-0.09547424
134	0xbda69944	-0.08134702
135	0x3cc879f8	0.024472222
136	0x3d9eabb8	0.077475965
137	0xbd4e7e58	-0.05041346
138	0xbca42f18	-0.020041987
139	0xbcf323b0	-0.029680103
140	0xbdd73f00	-0.10510063
141	0xbdae7f28	-0.08520347
142	0xbce7b9c8	-0.02828683
143	0xbd8c7610	-0.06858456
144	0x3ce16608	0.027514473
145	0x3dada21c	0.084781855
146	0xbcebb5a0	-0.028773129
147	0xbcc65300	-0.0242095
148	0x3d88a1fa	0.066715196
149	0x3c2c29d0	0.010508016
150	0x3d597df0	0.05309862
151	0x3dd18a9e	0.10231517
152	0x3ded4fb8	0.11587471
153	0x3d45733c	0.0482056
154	0x3c360ec0	0.011111915
155	0x3d8cf360	0.068823576
156	0x3d8652d6	0.065587685
157	0xbd1983c4	-0.037479177
158	0x3db6acba	0.08919664
159	0xbc9f8d68	-0.019476607
160	0xbde0292c	-0.10945353
161	0xbd663cb8	-0.05621025
162	0x3d1b3020	0.037887692
163	0x3cc944f0	0.024569005
164	0x3d62f88c	0.055412814
165	0x3d7c79cc	0.061639592
166	0xbda3f744	-0.080061466
167	0xbc0fbdc0	-0.008773267
168	0xbd9280a2	-0.07153441
169	0x3db7c77c	0.089735955
170	0x3db462a2	0.08807875
171	0x3d7317b0	0.059348762
172	0x3d8184a6	0.06324129
173	0xbd853d4e	-0.065058336
174	0x3d17a5c0	0.037023306
175	0xbd1d6318	-0.03842458
176	0x3d7c19b4	0.06154795
177	0x3dff3af6	0.12462418
178	0xbd2e5514	-0.042561606
179	0xbd99644e	-0.07489835
180	0xbdd52fba	-0.10409494
181	0xbdbaa390	-0.09113228
182	0x3d91db38	0.07121891
183	0x3dbb542c	0.09146914
184	0xbddacc74	-0.106835276
185	0x3dcef88e	0.10106002
186	0xbc8d8018	-0.017272994
187	0x3d11c384	0.03558685
188	0x3c8b1118	0.016975924
189	0xbc329a60	-0.010901064
190	0xbd8c9576	-0.06864445
191	0x3dcd6404	0.10028842
192	0xbdf8a224	-0.12140301
193	0x3c80d228	0.01572521
194	0xbdb3b168	-0.08774072
195	0x3c834568	0.016024306
196	0x3cee9f18	0.029128596
197	0x3dab50c2	0.08365013
198	0xbd78a798	-0.060706705
199	0x3de1ae26	0.11019544
200	0x3d4661fc	0.04843329
201	0xbd2c4b34	-0.042063907
202	0xbdfbf108	-0.123018324
203	0xbd14f428	-0.036365658
204	0xbd85999a	-0.06523438
205	0xbd89ab08	-0.06722075
206	0xbdc83ed0	-0.097776055
207	0x3d6f9720	0.058493733
208	0x3c1e27b0	0.009653017
209	0x3d72b020	0.059249997
210	0xbcd3e2f0	-0.025865048
211	0xbd1cb3b8	-0.03825733
212	0x3d678d20	0.05653107
213	0xbdef7832	-0.11692847
214	0x3d500d2c	0.05079381
215	0xbd5ef7b4	-0.054435447
216	0x3d3a1b38	0.045436114
217	0x3ccda510	0.025103122
218	0x3cdc5788	0.026897207
219	0x3d57abac	0.052653953
220	0xbdfb5932	-0.12272872
221	0x3de48a2e	0.11159168
222	0xbdb597a2	-0.08866812
223	0x3c370290	0.011170045
224	0x3df78626	0.12086134
225	0x3d005f5c	0.03134094
226	0xbd9099a4	-0.070605546
227	0x3db6bd90	0.08922875
228	0x3bb2c9a0	0.0054561645
229	0x3d30ce10	0.043165267
230	0x3dd60396	0.10449903
231	0xbdbc2176	-0.0918607
232	0x3de4c53c	0.11170432
233	0x3dd06f9c	0.10177538
234	0xbdd6ea92	-0.104939595
235	0xbd7e1444	-0.062031046
236	0xbdb01038	-0.085968435
237	0x3dc7c606	0.09754567
238	0x3ccf0098	0.025268838
239	0xbdff2684	-0.12458518
240	0x3d614578	0.05499789
241	0xbdb4b5e8	-0.08823758
242	0x3da5c44a	0.0809408
243	0x3df9fb30	0.12206113
244	0x3dbde0b6	0.09271376
245	0xbd88992a	-0.06669839
246	0x3d92264e	0.07136212
247	0xbdc0f970	-0.094225764
248	0xbd81ccbe	-0.063378796
249	0x3dfe9f32	0.12432708
250	0x3da845fc	0.082164735
251	0x3dd4a898	0.10383719
252	0xbde1b834	-0.11021462
253	0x3c61c870	0.013780698
254	0xbdc911ea	-0.0981787
255	0x39e0e400	0.00042894483

conv1.convs.<problem___belongs_to___topic>.lin_l.bias f4 [64]
0	0x3dfdeb10	0.1239835
1	0xbce04f38	-0.027381524
2	0xbd31e190	-0.043428004
3	0x3de24266	0.11047821
4	0xbc2fda30	-0.010733172
5	0x3d181498	0.037129015
6	0x3dfd666e	0.123730525
7	0x3cce1b08	0.025159374
8	0xbd8fc756	-0.07020442
9	0x3cba52e8	0.02274461
10	0x3ddb1f64	0.10699347
11	0xbbe9b7e0	-0.0071325153
12	0xbd8de006	-0.06927495
13	0xbd3ac220	-0.04559529
14	0x3c68bbf0	0.014204964
15	0x3d7b7820	0.061393857
16	0xbdf81cc0	-0.121148586
17	0xbdd94c78	-0.106102884
18	0x3db6dfb4	0.08929387
19	0x3df20f68	0.11819345
20	0xbd1bf470	-0.03807491
21	0xbd3d95b0	-0.04628533
22	0xbd4cd6e4	-0.050009623
23	0xbdc18a24	-0.09450176
24	0xbcf43fe0	-0.029815614
25	0x3dcbdf4a	0.099546984
26	0xbd167394	-0.036731318
27	0x3d7fb438	0.06242773
28	0x3c6dcb80	0.01451385
29	0x3dfdffe4	0.12402323
30	0x3da6c50c	0.081430525
31	0x3bca7ee0	0.0061796755
32	0xbd715e34	-0.05892773
33	0xbc923ba0	-0.017850697
34	0xbd2450cc	-0.040116116
35	0xbde618dc	-0.1123521
36	0xbda841b0	-0.08215654
37	0x3d60bac4	0.054865614
38	0xbdb3feca	-0.087888315
39	0x3dd0c8f0	0.10194576
40	0x3c9720f0	0.018448323
41	0x3b734b00	0.003712356
42	0x3dc3157e	0.09525584
43	0xbce5caa8	-0.028050736
44	0x3d9e9f7a	0.077452615
45	0xbcb5c0f0	-0.022186726
46	0x3df4843e	0.11939286
47	0x3d6b0828	0.057380825
48	0xbda67942	-0.08128597
49	0x3d749514	0.059712484
50	0xbd960f4c	-0.073271364
51	0x3d6b2768	0.057410628
52	0xb9f89c00	-0.00047418475
53	0xbd361960	-0.044457793
54	0xbd8bae30	-0.06820333
55	0xbdc61554	-0.09672037
56	0x3caad1f0	0.02085206
57	0x3d9b92a8	0.07596332
58	0xbdaa246e	-0.0830773
59	0xbd13c0a0	-0.036072373
60	0xbc7b20c0	-0.015327632
61	0xbdc3120a	-0.09524925
62	0xbde51284	-0.11185172
63	0xbca9d0d0	-0.020729452

conv1.convs.<problem___belongs_to___topic>.lin_r.weight f4 [64, 64]
0	0xbdf4b6ac	-0.119489044
1	0x3da885a2	0.082286134
2	0xba43c900	-0.0007468611
3	0xbdc7bb7e	-0.09752558
4	0x3d8f63e6	0.07001476
5	0xbdd391a8	-0.10330516
6	0xbbe12ec0	-0.006872028
7	0x3d80fd1c	0.06298277
8	0xbda14506	-0.07874493
9	0x3d4dc464	0.05023612
10	0xbd9a91a4	-0.0754731
11	0x3db4201a	0.087951854
12	0xbde90efc	-0.11379811
13	0x3dd1f7ea	0.10252364
14	0x3dad48f4	0.0846118
15	0x3d9b157e	0.07572459
16	0x3c3a0940	0.011354744
17	0xbd874bf6	-0.06606285
18	0x3b8396c0	0.0040157735
19	0xbd6ad874	-0.057335332
20	0x3dfa19c2	0.12211944
21	0x3d1a6424	0.037693158
22	0xbcb4ed38	-0.022085771
23	0xbdd46e56	-0.103726074
24	0xbd9a8ce2	-0.075464025
25	0x3beec460	0.0072865933
26	0x3db92d74	0.090418726
27	0xbde0b990	-0.10972893
28	0x3aace500	0.0013190806
29	0xbc839a18	-0.016064689
30	0x3d8c17c8	0.068404734
31	0xbddb410e	-0.107057676
32	0xbda68bec	-0.08132157
33	0x3da152ce	0.07877122
34	0x3d3c3a20	0.04595387
35	0x3de7f30a	0.11325653
36	0xbca61450	-0.020273358
37	0x3dafdb00	0.08586693
38	0x3dd27ad6	0.10277335
39	0x3cf3fa80	0.029782534
40	0x3d1dff7c	0.038573727
41	0xbbb00560	-0.0053717345
42	0xbd7fac70	-0.06242031
43	0x3d8fca82	0.07021047
44	0x3d1d4d88	0.038404018
45	0x3dd33ea4	0.10314682
46	0x3d2cc78c	0.04218249
47	0xbdc91050	-0.098175645
48	0xbdca1cf8	-0.098688066
49	0xbc193e90	-0.009353295
50	0x3dcc606c	0.099793285
51	0xbdb078d2	-0.08616795
52	0xba9ff400	-0.0012203455
53	0x3dc4a346	0.096014544
54	0xbdef9e3a	-0.11700101
55	0x3b3c6440	0.0028746277
56	0xbdd2c29a	-0.102910236
57	0xbde5af16	-0.112150356
58	0xbdaf3212	-0.08554472
59	0xbd4c0b04	-0.049815193
60	0xbc04c420	-0.0081034005
61	0xbdcc73e6	-0.099830434
62	0x3dbeacf6	0.093103334
63	0x3df2bb06	0.11852078
64	0xbde9d2b4	-0.114171416
65	0xbcf914e8	-0.030405477
66	0x3d32bbf4	0.043636277
67	0xbd4840d0	-0.048889935
68	0x3cf2e1d0	0.029648691
69	0xbdb18fec	-0.08670029
70	0x3cc056b8	0.02347885
71	0x3d83797a	0.06419654
72	0xbdc04b22	-0.093893304
73	0x3dc2cf46	0.095121905
74	0xbd6fa9e4	-0.05851163
75	0xbdf695b2	-0.12040271
76	0x3d72dd00	0.059292793
77	0xbbbf5100	-0.0058385134
78	0x3d99dbe0	0.07512641
79	0x3daf9e1c	0.08575079
80	0x3da5907e	0.080842
81	0x3cdb0888	0.026737466
82	0x3d9461e2	0.07245232
83	0xbd1788dc	-0.036995754
84	0x3df67a1c	0.12035009
85	0x3d8ce3c8	0.06879383
86	0xbdc6e99c	-0.09712526
87	0x3dfaf9c4	0.1225467
88	0xbde36c42	-0.11104633
89	0x3da606d4	0.08106771
90	0x3ca0fb40	0.019651055
91	0x3dbb18c6	0.091355845
92	0xbc855fa0	-0.01628095
93	0xbceca3b0	-0.028886646
94	0xbdc5c10e	-0.09655963
95	0x3da22064	0.07916334
96	0x3baefa20	0.005339876
97	0x3bbb9a60	0.00572519
98	0x3ca81078	0.020515665
99	0x3df57138	0.119844854
100	0xbdd5029c	-0.10400888
101	0x3d38aae8	0.045084864
102	0xbd941e82	-0.072323814
103	0x3d61d4a8	0.055134445
104	0xbc854970	-0.01627037
105	0x3dafb6ec	0.085798115
106	0xbc933248	-0.017968312
107	0xbdc95f7e	-0.09832667
108	0xbd9da0b4	-0.07696667
109	0x3daea848	0.08528191
110	0xbc85a898	-0.016315743
111	0xbd07652c	-0.03305547
112	0xbdf99488	-0.12186533
113	0xbd262dac	-0.0405709
114	0xbdb45fda	-0.08807345
115	0xbcf8f298	-0.030389115
116	0xbdc15234	-0.09439507
117	0xbd221fdc	-0.039581165
118	0x3df70470	0.12061393
119	0x3d4c4e20	0.049879193
120	0x3de75e8e	0.11297332
121	0xbde81eb6	-0.11333983
122	0xbd11ffe4	-0.035644427
123	0xbd8f4f02	-0.069974914
124	0x3dca2e46	0.09872107
125	0x3df0a12c	0.11749491
126	0x3d785328	0.06062618
127	0xbcf11be0	-0.029432237
128	0x3dc3e9d2	0.09566082
129	0x3d933e92	0.07189669
130	0xbd84697c	-0.06465432
131	0x3dccf904	0.100084335
132	0xbda5c512	-0.08094229
133	0xbd354e28	-0.04426399
134	0x3de43b8e	0.11144172
135	0xbdf566ee	-0.11982523
136	0xbdcd3ca6	-0.100213334
137	0x3d9404f4	0.07227507
138	0xbbf5d0c0	-0.0075016916
139	0xbd0ef514	-0.034901693
140	0xbd0a7ec4	-0.0338123
141	0xbca4b8a8	-0.020107582
142	0x3dfdfa7e	0.12401293
143	0xbdaf12e4	-0.08548525
144	0xbdefc268	-0.11707002
145	0xbdba774e	-0.09104787
146	0xbde7fd86	-0.11327653
147	0xbb9143a0	-0.0044331104
148	0xbdfd9c22	-0.123832956
149	0x3d2a5c3c	0.041591868
150	0x3d01015c	0.031495437
151	0xbdfe4094	-0.12414661
152	0xbdf1adf0	-0.11800754
153	0xbd9d7eac	-0.07690176
154	0x3d9ca1a4	0.07648018
155	0x3de28dee	0.11062227
156	0xbc9ffe80	-0.019530535
157	0xbc8e63d8	-0.017381594
158	0xbdb92648	-0.09040505
159	0x3db38224	0.08765057
160	0xbd7d8a60	-0.061899543
161	0x3c263e30	0.010146663
162	0xbd539648	-0.05165699
163	0xbdb7c94a	-0.0897394
164	0x3d630ad4	0.05543025
165	0xbac5ff00	-0.0015105903
166	0xbdb4bacc	-0.08824691
167	0xbcc0e7a8	-0.023547962
168	0xbc0d6bb0	-0.008631632
169	0x3df77056	0.12081973
170	0x3d36c2b8	0.044619292
171	0x3d275120	0.04084885
172	0x3c363410	0.011120811
173	0x3dd48b0a	0.10378082
174	0x390be800	0.000133425
175	0xbcb14bc0	-0.021642566
176	0x3d4f2158	0.05056891
177	0xbdf67fd2	-0.120360985
178	0x3d4d3248	0.05009678
179	0x3c9b3528	0.018946245
180	0x3d9c15c0	0.07621336
181	0xbde3e8c8	-0.11128384
182	0x3d449364	0.047992125
183	0x3d77e280	0.06051874
184	0xbdbfbe2a	-0.09362443
185	0xbddc7350	-0.107641816
186	0x3ca6a2a0	0.020341218
187	0xbcfba6e8	-0.030719236
188	0xbc5f6550	-0.013634995
189	0x3dadfc4e	0.08495389
190	0xbb4ee700	-0.0031570792
191	0xbd48bd04	-0.049008384
192	0x3dc98f4c	0.09841785
193	0x3d340d1c	0.043957815
194	0x3d477200	0.048692703
195	0xbdc9f6fa	-0.0986156
196	0x3de113b2	0.10990085
197	0x3d51c700	0.05121517
198	0xbcb367d0	-0.021900088
199	0x3d2d5758	0.042319626
200	0xbda9c9e6	-0.08290462
201	0x3d112cac	0.035442993
202	0x3dca886a	0.098893
203	0x3ce6f410	0.02819255
204	0x3d3872a0	0.04503119
205	0xbdcbb94a	-0.099474505
206	0x3ccc0c90	0.024908334
207	0xbdee6b52	-0.116415635
208	0xbc124170	-0.008926734
209	0x3d7d9048	0.061905175
210	0xbda54964	-0.08070639
211	0x3cad9018	0.021186873
212	0x3df07f40	0.11743021
213	0x3badb940	0.0053016245
214	0x3cc64cb8	0.024206504
215	0xbd42b498	-0.04753551
216	0xbcfbc9a0	-0.03073579
217	0xbdc72e1c	-0.097255915
218	0x3de28126	0.11059789
219	0x3d34e8e0	0.0441674
220	0x3d187554	0.037221268
221	0xbd93935e	-0.072058424
222	0x3c593580	0.013257384
223	0xbbb3bfa0	-0.00548549
224	0x3dc12eba	0.094327405
225	0xbcb97c28	-0.02264221
226	0x3dd4d5ce	0.103923425
227	0x3d226d58	0.03965506
228	0xbd0a598c	-0.033776805
229	0xbdf7ad90	-0.12093651
230	0x3cbf3008	0.023338333
231	0xbd7f0408	-0.062259704
232	0xbc577fa0	-0.013152987
233	0xbc9d88a8	-0.019230202
234	0xbd90aac4	-0.07063821
235	0xbdfb6144	-0.12274411
236	0xbd904c78	-0.07045835
237	0x3d5c8128	0.05383411
238	0x3db81318	0.08988017
239	0x3d9f2094	0.07769886
240	0xbd299c84	-0.04140903
241	0xbd005e14	-0.03133972
242	0xbda2b6e2	-0.079450384
243	0x3dc43cae	0.09581886
244	0xbd63368c	-0.05547194
245	0xbb39ed80	-0.002837032
246	0xbc6d3870	-0.014478788
247	0xbc8f4d90	-0.01749304
248	0xbd7e0f70	-0.06202644
249	0x3df6b454	0.120461136
250	0xbd055264	-0.032549277
251	0xbdd2a8c8	-0.10286099
252	0xbd5e9d2c	-0.05434911
253	0x3b1136c0	0.0022157878
254	0xbcbffed0	-0.023436934
255	0x3cc45b48	0.023969308

conv1.convs.<problem___solved_by___user>.lin_l.weight f4 [64, 64]
0	0x3dbc422b	0.09192308
1	0xbe1578d8	-0.1459688
2	0x3d7f4742	0.062323816
3	0xbe15b64c	-0.14620322
4	0xbc9d4b38	-0.019200906
5	0xbe482f7c	-0.19549364
6	0xbc17b12d	-0.009258551
7	0x3df22b3c	0.118246526
8	0xbded973e	-0.11601113
9	0x3b40935b	0.0029384706
10	0x3e1487a8	0.14504874
11	0x3d442980	0.04789114
12	0x3cf1b399	0.029504584
13	0x3da099e7	0.078418545
14	0x3dc53971	0.09630097
15	0x3cb83310	0.022485286
16	0x3ca3f30f	0.02001336
17	0xbd16ddb9	-0.036832545
18	0xbc7bb0ef	-0.0153620085
19	0xbc8526c1	-0.01625383
20	0x3dec7397	0.115454845
21	0xbdf3fee8	-0.11913854
22	0x3dac2a28	0.08406478
23	0xbd5e411f	-0.054261323
24	0x3d9c43ed	0.07630143
25	0x3cb69e6a	0.022292335
26	0x3ce037ff	0.027370451
27	0xbe23cc94	-0.15996009
28	0xbd6f7d66	-0.0584692
29	0xbd27f617	-0.041006174
30	0xbe2361eb	-0.15955321
31	0xbdeb7c3e	-0.11498307
32	0x3beb7b7f	0.0071863527
33	0x3dfddf83	0.12396147
34	0x3de41637	0.1113705
35	0x3ca04bc1	0.019567372
36	0xbd4a55c0	-0.049398184
37	0xbc2edbc1	-0.010672511
38	0xbe16928c	-0.1470434
39	0x3dc4cbb7	0.09609168
40	0xbd8ceb14	-0.06880775
41	0x3d0569f8	0.032571763
42	0x3dbad317	0.091222934
43	0x3e212390	0.15736222
44	0xbdbaffb4	-0.09130803
45	0x3ded25b2	0.115794554
46	0x3c558cac	0.013034027
47	0xbdf4abf5	-0.11946861
48	0x3caec19f	0.02133256
49	0xbd04e80b	-0.032447856
50	0x3d72b334	0.059252933
51	0x3d2e2191	0.04251248
52	0xbcba5b66	-0.02274866
53	0xbd3180ce	-0.04333573
54	0x3d320a7d	0.043467034
55	0xbe1d3512	-0.15352276
56	0x3df1e4df	0.11811232
57	0xbc845f8d	-0.016158843
58	0xbc8672ea	-0.016412217
59	0xbcc47920	-0.023983538
60	0x3e107b63	0.14109568
61	0xbd181041	-0.037124876
62	0x3e2fc6a0	0.17165613
63	0xbe05260d	-0.13002796
64	0x3d9cd16d	0.07657132
65	0xbd4a6b44	-0.049418703
66	0x3de59f7f	0.11212062
67	0xbe1aa059	-0.1510023
68	0x3e117ab2	0.14206961
69	0xbd7e6cb4	-0.062115386
70	0x3d28413d	0.04107784
71	0xbd77508f	-0.06037956
72	0xbc05bfa8	-0.00816337
73	0x3d473c30	0.048641384
74	0x3d158d17	0.036511507
75	0x3d7ac7f1	0.061225835
76	0x3c1b89de	0.009493319
77	0x3dfeaa30	0.124348044
78	0xb9639de8	-0.00021707232
79	0xbd4910d4	-0.049088314
80	0xbe088e76	-0.13335595
81	0xbd2fe274	-0.042940572
82	0x3e2ea5e3	0.17055468
83	0x3e000c32	0.12504652
84	0x3d0147eb	0.031562727
85	0xbd3169bd	-0.04331373
86	0x3dfa11cb	0.12210425
87	0x3ce7e0ab	0.028305372
88	0xbcfa697e	-0.03056788
89	0x3e1a2351	0.15052535
90	0xbe040cb7	-0.12895475
91	0xbe060f4f	-0.13091777
92	0xbdb00c7e	-0.08596133
93	0xbce79afd	-0.028272146
94	0xbd0b8ca9	-0.03406969
95	0xbe01a4ad	-0.12660475
96	0x3d572741	0.05252767
97	0xbd2725bd	-0.040807474
98	0x3c667cf7	0.01406788
99	0x3bc279f1	0.0059349467
100	0x3c93efcc	0.01805868
101	0xbd0fae54	-0.03507836
102	0xbe344cc4	-0.17607409
103	0x3e04cdca	0.12969127
104	0x3d282d6a	0.041058935
105	0xbdbfcef6	-0.093656465
106	0x3e14656d	0.14491816
107	0x3dd9d3e0	0.10636115
108	0x3e2606cc	0.1621353
109	0x3e0ebf6e	0.13940212
110	0xbe3bac69	-0.18327488
111	0xbd570a5f	-0.052500125
112	0x3e041174	0.12897283
113	0x3d4def21	0.05027688
114	0xbd6b02f7	-0.057375874
115	0x3d1e57da	0.038658
116	0xbd919b13	-0.07109656
117	0x3b4f0b78	0.003159253
118	0xbb5ce549	-0.0033706
119	0xbe24b097	-0.16082989
120	0xbc8e379f	-0.017360507
121	0xbd798f0a	-0.06092743
122	0xbdb33dec	-0.08752045
123	0x3e17ee7a	0.14837065
124	0x3e3b73eb	0.18305938
125	0xbd8202e9	-0.06348211
126	0x3e20b1b6	0.15692791
127	0xba8d2d58	-0.001077096
128	0x3e0fe716	0.14052996
129	0xbe1c04b7	-0.15236174
130	0x3c18c8c5	0.009325211
131	0xbe33ceec	-0.17559403
132	0x3d40c352	0.047061272
133	0xbe0a5dc1	-0.13512327
134	0xbe06b1af	-0.13153718
135	0x3cf4fc24	0.029905386
136	0xbcacc44d	-0.021089697
137	0xbd2ad7de	-0.041709773
138	0x3e348721	0.17629673
139	0xbda385bd	-0.07984493
140	0xbbc42fb0	-0.00598713
141	0xbd363ef4	-0.04449363
142	0xbcc299d2	-0.023754988
143	0xbe0824c2	-0.13295272
144	0xbc67e329	-0.01415328
145	0xbd0aced4	-0.033888653
146	0x3d9e067a	0.07716079
147	0x3c3b20e0	0.011421412
148	0x3cf2c68f	0.029635696
149	0xbe178023	-0.14794974
150	0x3e0d5e7c	0.13805574
151	0x3d6039c4	0.05474259
152	0xbd40c07e	-0.047058575
153	0x3d75b3ef	0.05998605
154	0xbd491ee0	-0.04910171
155	0xbe0886ef	-0.13332723
156	0x3d988fce	0.074493036
157	0x3d92ed26	0.07174139
158	0x3cc68b39	0.024236308
159	0xbdd1eab5	-0.10249845
160	0x3c39237c	0.011299964
161	0x3dfe42e2	0.12415101
162	0xbab7f620	-0.0014035143
163	0x3c51f916	0.012815734
164	0xbdc79883	-0.09745886
165	0x3dd3d36b	0.10343059
166	0xbe3ba563	-0.18324809
167	0x3decaf62	0.11556889
168	0x3d0ec812	0.03485877
169	0xbcbe66c0	-0.023242354
170	0x3e036e2a	0.12834993
171	0x3d3b3e54	0.045713738
172	0x3e3168be	0.17325112
173	0xbc8ad477	-0.016947014
174	0xbdbd44a5	-0.092416085
175	0xbd4b8f52	-0.049697228
176	0x3d8967f1	0.067092784
177	0xbc9f2ec9	-0.019431489
178	0xbc79cd12	-0.0152466465
179	0x3ca97ad5	0.020688454
180	0x3ddd04e6	0.1079195
181	0xbdb3bb9f	-0.0877602
182	0xbc933e0a	-0.017973918
183	0xba4926c8	-0.00076733204
184	0x3dd618de	0.10453962
185	0xbe34e547	-0.17665587
186	0xbe2a1890	-0.16610932
187	0xbd4fdb43	-0.050746214
188	0x3df6542c	0.12027773
189	0xbd6b783d	-0.057487715
190	0x3dde71e0	0.10861564
191	0xbe3bb940	-0.18332386
192	0x3dcde90c	0.10054216
193	0xbde462ee	-0.11151682
194	0xbddda117	-0.10821741
195	0xbd14908f	-0.036270674
196	0x3d8e2847	0.06941276
197	0xbdb8ac57	-0.09017246
198	0x3d49f97b	0.04931019
199	0xbd5af0f4	-0.053452447
200	0xbdc9a50a	-0.09845932
201	0x3db478ff	0.08812141
202	0x3d102ea4	0.03520073
203	0xbe8e72fe	-0.27822107
204	0x3be90026	0.0071106134
205	0xbce8d541	-0.028422
206	0xbd7851ea	-0.060624994
207	0xbe24c536	-0.16090855
208	0xbdf25207	-0.11832052
209	0xbd14b5f3	-0.036306333
210	0x3db2b1eb	0.087253414
211	0xbd9e2dcb	-0.07723578
212	0xbc955788	-0.018230215
213	0x3b22e86d	0.0024857775
214	0x3e342451	0.17591979
215	0xbd47a8c3	-0.048744928
216	0x3d8767a9	0.066115685
217	0xbc36fedf	-0.011169164
218	0xbd472876	-0.04862257
219	0xbdf4e0d7	-0.11956947
220	0xbe6ef43d	-0.23335357
221	0xbd2a7db0	-0.04162377
222	0xbde190ca	-0.110139444
223	0xbe777c52	-0.24168518
224	0x3d901ac3	0.070363544
225	0x3e1871db	0.14887182
226	0x3c170fac	0.009220045
227	0xbdcc01e2	-0.099612966
228	0xbdce9ed5	-0.100888886
229	0xbdc4dfde	-0.09613012
230	0xbd0b9277	-0.034075227
231	0x3d87261d	0.065990664
232	0xbd2e18fc	-0.042504296
233	0xbd8889ab	-0.06666883
234	0xbdde1a11	-0.108448155
235	0x3e050f00	0.12994003
236	0xbd93bdda	-0.07213946
237	0xbcf038b4	-0.029323913
238	0xbe1a28c9	-0.15054621
239	0xbe24ebab	-0.16105525
240	0x3e09381e	0.13400313
241	0x3d01df40	0.03170705
242	0x3b115343	0.0022174872
243	0xbe079fea	-0.13244596
244	0xbb7cffb6	-0.0038604564
245	0x3c244cbe	0.010028062
246	0x3d031f0b	0.032012027
247	0xbdc9aa86	-0.09846978
248	0x3da10aa7	0.0786336
249	0x3dfc22f9	0.12311358
250	0xbd96e033	-0.07366981
251	0x3cb83a00	0.022488594
252	0x3e280273	0.16407184
253	0xbe4ad8c4	-0.19809252
254	0xbd8cf534	-0.06882706
255	0x3d5d11d9	0.0539721

conv1.convs.<problem___solved_by___user>.lin_l.bias f4 [64]
0	0xbe1713dc	-0.1475367
1	0xbe00e56c	-0.12587517
2	0xbdbe0f34	-0.092802435
3	0xbe13d89f	-0.14438103
4	0xbd72a52c	-0.05923955
5	0x3bdb75b8	0.006697383
6	0x3d22e596	0.03976973
7	0xbd7573d4	-0.059924915
8	0xbe070097	-0.13183819
9	0xbe3f97e9	-0.18710293
10	0xbcf7b618	-0.030238196
11	0xbe21aa5b	-0.15787642
12	0x3cf8a145	0.030350337
13	0xbd24fb5c	-0.040278777
14	0xbdd97e16	-0.10619752
15	0xbc77fd91	-0.015136139
16	0xbd6a6295	-0.05722292
17	0xbbbcd4ab	-0.0057626567
18	0xbe1ea47f	-0.15492438
19	0xbe25fe36	-0.16210255
20	0xbe1457f2	-0.14486673
21	0x3c8ebc35	0.017423728
22	0x3d33320e	0.043748908
23	0xbd8690ff	-0.065706246
24	0xbe384c75	-0.17997916
25	0x3b92c8f4	0.004479522
26	0xbc928981	-0.017887833
27	0xbdfeea2f	-0.12447011
28	0xbd347aa5	-0.044062275
29	0xbdb0ddc7	-0.08636051
30	0xbe158713	-0.14602308
31	0xbdcf5c1f	-0.101249926
32	0xbe0705d3	-0.13185816
33	0xbda240c0	-0.07922506
34	0xbe131c95	-0.14366372
35	0xbd900552	-0.07032265
36	0xbdb20c57	-0.0869376
37	0xbdaa71e3	-0.083225034
38	0xbd5c69fb	-0.05381201
39	0xbe30585f	-0.17221211
40	0xbd96b788	-0.073592246
41	0xbe165e11	-0.14684321
42	0xbe329c17	-0.17442356
43	0xbcba67fd	-0.022754664
44	0xbdbb7385	-0.09152893
45	0xbc87d4b8	-0.016580924
46	0xbe1cc508	-0.15309536
47	0xbe2c1fec	-0.16809052
48	0x3d94526a	0.07242282
49	0xbe581f0d	-0.21105595
50	0xbd77657d	-0.06039952
51	0xbd8ebedb	-0.069699965
52	0x3bbad6f8	0.005701896
53	0xbd47d799	-0.048789594
54	0xbd7033ac	-0.05864303
55	0xbe3abb9a	-0.18235627
56	0xbe5a7435	-0.21333392
57	0xbd8c996b	-0.068652
58	0xbc324c71	-0.010882483
59	0xbdaca3e4	-0.08429697
60	0xbcecc911	-0.02890447
61	0xbe1ab623	-0.15108542
62	0xbe08b9ea	-0.1335217
63	0xbe6bc1f8	-0.23023212

conv1.convs.<problem___solved_by___user>.lin_r.weight f4 [64, 64]
0	0x3d0a041f	0.033695336
1	0x3d772749	0.0603402
2	0x3d1931ed	0.03740113
3	0x3c5f87f4	0.013643254
4	0x3c927943	0.017880088
5	0x3ce0cfa3	0.027442759
6	0xbb919511	-0.004442819
7	0xbcdc93f5	-0.02692602
8	0xbdbb9044	-0.09158376
9	0xbd9042c3	-0.07043984
10	0xbcef4341	-0.029206874
11	0xbc347d38	-0.011016183
12	0x3e0eb757	0.13937126
13	0xbd591cd6	-0.053006016
14	0xbc1fedf4	-0.009761322
15	0x3c1c18e2	0.009527417
16	0x3e3887e2	0.18020585
17	0x3e0df2d1	0.13862158
18	0x3db6bf7a	0.0892324
19	0x3cafcef3	0.021460986
20	0xbc8f6d1d	-0.017508084
21	0x3d411d38	0.047147006
22	0xbd4ea435	-0.05044957
23	0x3de6f188	0.11276537
24	0x3e09f9ef	0.13474248
25	0xbd6c33ee	-0.05766671
26	0x3c0acf9b	0.008472349
27	0xbd2f2293	-0.042757582
28	0xbc87b614	-0.016566314
29	0xbd155ecf	-0.03646737
30	0xbe0e2f6d	-0.13885279
31	0x3d4dcdae	0.05024498
32	0x3b2655c2	0.0025380705
33	0x3d2f87a4	0.042853966
34	0xbd03adbd	-0.03214811
35	0x3ce57f2b	0.02801474
36	0x3cf25bf8	0.02958487
37	0xbd57d275	-0.05269094
38	0xbdde5945	-0.108568706
39	0xbdeb9dac	-0.11504683
40	0xbd3086f3	-0.043097448
41	0x3ca703d1	0.020387562
42	0xbd5a0bba	-0.05323384
43	0x3e11b3d5	0.14228757
44	0xbce58345	-0.028016696
45	0x3e0199b0	0.12656283
46	0x3c9be405	0.019029627
47	0xbd840463	-0.06446149
48	0x3dba7d5b	0.09105941
49	0x3caae19c	0.020859532
50	0xbd07be8a	-0.033140697
51	0xbc7d4637	-0.015458635
52	0xb968fd9c	-0.00022219721
53	0xbcfaaad4	-0.030599035
54	0xbb98654f	-0.004650749
55	0xbe2820e6	-0.164188
56	0xbe0e549e	-0.13899466
57	0x3d7b6fc6	0.061385892
58	0xbe02b404	-0.12763983
59	0xbc929a4a	-0.017895836
60	0xbca56c54	-0.020193256
61	0x3e27e4f0	0.16395926
62	0xbd2e9a47	-0.0426276
63	0x3e00696d	0.12540217
64	0x3c6d2bbd	0.01447576
65	0x3d952288	0.07281977
66	0xbd41f5ec	-0.04735367
67	0xbd49c6f2	-0.049261995
68	0x3dc404d5	0.09571234
69	0xbc7bece7	-0.015376306
70	0xbc832eba	-0.016013492
71	0xbd9e1ca6	-0.07720308
72	0x3de115fd	0.10990522
73	0x3e038067	0.1284195
74	0x3cafee83	0.021476036
75	0xbdab87a7	-0.08375483
76	0xbd01e52d	-0.0317127
77	0xbe158ce0	-0.14604521
78	0xbcbb6182	-0.022873644
79	0xbd972192	-0.0737945
80	0x3c4d5980	0.0125335455
81	0x3cddcda1	0.02707559
82	0xbc95bfe4	-0.018279977
83	0x3dd6a826	0.104812905
84	0xbd74da2f	-0.05977839
85	0x3db4fccd	0.088372804
86	0x3e1679b5	0.14694865
87	0x3c0d29a2	0.008615883
88	0x38e28908	0.00010802044
89	0xbdbed17f	-0.09317302
90	0xbd8f6774	-0.07002154
91	0xbbaf3936	-0.0053473962
92	0xbdea5304	-0.11441615
93	0x3ce165fa	0.027514447
94	0x3c03d03b	0.0080452515
95	0x3cfee330	0.03111419
96	0xbdfb686e	-0.12275778
97	0xbcda9694	-0.02668313
98	0x3db34761	0.08753849
99	0x3c39c977	0.011339537
100	0x3d7aeb2e	0.06125944
101	0xbd919420	-0.07108331
102	0x3d33760d	0.043813754
103	0xbcc68821	-0.024234833
104	0x3d023f6c	0.031798765
105	0xbe093077	-0.13397394
106	0x3d9e117e	0.0771818
107	0xbd42565f	-0.04744565
108	0x3e53af61	0.2067237
109	0x3cc88dff	0.024481772
110	0xbdc2c910	-0.09511006
111	0xbd039f2d	-0.032134224
112	0x3d0c96e2	0.03432358
113	0xbdb37748	-0.087629855
114	0x3d594559	0.05304465
115	0xbd837449	-0.06418664
116	0xbc644d11	-0.01393439
117	0x3d667c21	0.056270722
118	0xbad2908a	-0.0016064805
119	0xbd85b62a	-0.06528886
120	0xbdafdaa5	-0.08586625
121	0x3d8df9e5	0.06932429
122	0xbcbad300	-0.02280569
123	0xbc506e42	-0.0127216
124	0x3d9aa1c2	0.07550384
125	0x3d8578b2	0.065171614
126	0x3d5dae67	0.0541214
127	0xbca4e173	-0.020127034
128	0xbddac2ba	-0.106816724
129	0x3d52549f	0.051350232
130	0xbdd44ef5	-0.10366622
131	0x3bcf2063	0.0063209995
132	0x3df7660a	0.12080009
133	0x3abc36b1	0.0014359561
134	0x3da91285	0.082554854
135	0x3d152858	0.036415428
136	0xbd7bdea0	-0.06149161
137	0x3d159874	0.036522344
138	0xb833d010	-4.28707e-05
139	0x3cd8040b	0.026369115
140	0x3e52b22b	0.20575778
141	0xbdb71734	-0.089399725
142	0xbdac9780	-0.08427334
143	0x3de7274d	0.11286793
144	0xbcd4e133	-0.02598629
145	0x3e3afcf4	0.18260556
146	0x3e204a15	0.1565326
147	0xbb017ba4	-0.0019757533
148	0x3c554256	0.013016304
149	0xbd57ed35	-0.052716453
150	0xbdf9f124	-0.12204197
151	0x3df32e68	0.11874086
152	0x3d088c3d	0.033336867
153	0x3c2357ce	0.009969665
154	0x3db1a46c	0.08673939
155	0xbb468fa6	-0.0030298023
156	0xbe155ce9	-0.14586224
157	0x3beeb570	0.0072848126
158	0xbe8d7045	-0.27624717
159	0xbebd5248	-0.36976838
160	0xbe0644ce	-0.13112184
161	0xbe22e345	-0.15907009
162	0x3d231527	0.039815094
163	0x3d8b2959	0.06794996
164	0x3e3aaa7d	0.18229099
165	0xbdd49892	-0.10380663
166	0x3c95380d	0.018215204
167	0xbd494867	-0.049141314
168	0xbe2b7e84	-0.1674748
169	0xbc1620f3	-0.009163129
170	0x3da5b199	0.08090515
171	0x3d443281	0.047899727
172	0x3e28e02c	0.16491765
173	0x3e1e0059	0.1542982
174	0x3e1b2c68	0.15153658
175	0x36bb95c0	5.5904675e-06
176	0xbc333e33	-0.010940122
177	0xbd12442e	-0.035709552
178	0x3c2833ce	0.010266257
179	0x3c94c1c1	0.018158795
180	0xbcd8da3d	-0.026471252
181	0xbccba269	-0.024857717
182	0xbe039cf4	-0.12852842
183	0xbd238566	-0.03992214
184	0x3c222268	0.009895898
185	0x3d51c32a	0.051211514
186	0xbda65370	-0.08121383
187	0xbd7cf08e	-0.06175285
188	0xbc686357	-0.014183841
189	0x3ca7b480	0.020471811
190	0x3e080a9d	0.13285299
191	0xbd155f1a	-0.03646765
192	0x3e61b0d5	0.22040112
193	0x3d032a39	0.03202269
194	0x3e003318	0.1251949
195	0x3db56cb3	0.08858623
196	0xbc658058	-0.01400765
197	0x3d98dfc3	0.07464554
198	0xbbfe794f	-0.007765926
199	0x3c87a76e	0.016559329
200	0xbdd6697f	-0.104693405
201	0xbdfe99fe	-0.124317154
202	0x3dcf1185	0.101107635
203	0x3dec3909	0.11534316
204	0x3dd530ac	0.10409674
205	0xbda7d50f	-0.081949346
206	0xbd84970c	-0.064741224
207	0x3b92c14d	0.0044786097
208	0x3cec23f3	0.028825736
209	0xbc0cd9d0	-0.008596852
210	0x3cbe4daa	0.023230392
211	0xbda2e713	-0.0795423
212	0xbda97eaf	-0.08276116
213	0xbe076295	-0.132212
214	0x3d050b01	0.032481197
215	0x3dd9166b	0.10599979
216	0x3da32613	0.079662465
217	0x3cc91086	0.024544012
218	0xbd8618e5	-0.06547717
219	0xbdbae6c7	-0.091260485
220	0xbd145c8a	-0.036221065
221	0x3daa505c	0.083161086
222	0xbc8b13a7	-0.016977144
223	0xbd032de1	-0.032026175
224	0xbda93bec	-0.08263382
225	0x3d0c5560	0.034261107
226	0x3ca7e2d6	0.020493906
227	0x3d6f7dca	0.05846957
228	0x3cf15c04	0.029462822
229	0x39c7aaa8	0.00038083387
230	0xba659954	-0.00087585044
231	0xbe3159b7	-0.1731938
232	0xbc6797e5	-0.014135336
233	0xbdad1b5f	-0.08452486
234	0x3d0dcac0	0.034617186
235	0x3ce63c13	0.028104817
236	0x3e4b3212	0.19843319
237	0x3d16efa8	0.036849648
238	0x3d238d92	0.039929934
239	0xbaaeb411	-0.001332881
240	0x3cc28a6c	0.023747645
241	0xbe1dcf9f	-0.15411232
242	0x3d93470c	0.071912855
243	0xbcd51788	-0.026012197
244	0x3d125939	0.03572962
245	0xbc83749e	-0.016046818
246	0xbc5e2838	-0.013559394
247	0x3c8894db	0.016672542
248	0xbd6879bd	-0.056756724
249	0xbd790d0f	-0.06080347
250	0x3d9d153d	0.076700665
251	0xbb79e89c	-0.003813303
252	0xbcc42a05	-0.023945818
253	0xbcd8e984	-0.026478536
254	0xbda3ea0b	-0.080036245
255	0xbce31b69	-0.027723031
